TeamCode/tflite_learn_911393_4.tflite (tflite, 56672 bytes, 21 tensors)

model_1/logits/Conv2D i1 [4, 1, 1, 32]
0	0x05	5
1	0xec	-20
2	0xd9	-39
3	0x13	19
4	0x7f	127
5	0xd5	-43
6	0x17	23
7	0xe4	-28
8	0x62	98
9	0xfc	-4
10	0x4f	79
11	0x47	71
12	0xb1	-79
13	0xf5	-11
14	0x2f	47
15	0x1e	30
16	0x0e	14
17	0x05	5
18	0xb7	-73
19	0x06	6
20	0x08	8
21	0x5b	91
22	0xd4	-44
23	0x69	105
24	0x0a	10
25	0x05	5
26	0xf0	-16
27	0xfc	-4
28	0x74	116
29	0xef	-17
30	0x20	32
31	0x05	5
32	0x32	50
33	0x44	68
34	0xa9	-87
35	0xf2	-14
36	0xd4	-44
37	0x27	39
38	0x6d	109
39	0x25	37
40	0xda	-38
41	0xc2	-62
42	0xb2	-78
43	0x29	41
44	0x57	87
45	0xcc	-52
46	0x47	71
47	0x81	-127
48	0x6d	109
49	0xa0	-96
50	0x0f	15
51	0xd1	-47
52	0x0c	12
53	0xbd	-67
54	0xae	-82
55	0xcc	-52
56	0xe8	-24
57	0xb3	-77
58	0x3d	61
59	0xc3	-61
60	0xcc	-52
61	0x9a	-102
62	0xe7	-25
63	0xea	-22
64	0xee	-18
65	0x57	87
66	0x27	39
67	0x5e	94
68	0xed	-19
69	0xfe	-2
70	0x51	81
71	0x31	49
72	0xc1	-63
73	0x83	-125
74	0x42	66
75	0xcf	-49
76	0xb4	-76
77	0x50	80
78	0x81	-127
79	0x39	57
80	0x38	56
81	0x3b	59
82	0x45	69
83	0xcb	-53
84	0xf0	-16
85	0xf7	-9
86	0xf5	-11
87	0xee	-18
88	0x94	-108
89	0xdf	-33
90	0x4a	74
91	0xa0	-96
92	0x04	4
93	0x25	37
94	0x3d	61
95	0x36	54
96	0x49	73
97	0xb7	-73
98	0x4d	77
99	0x0e	14
100	0xe7	-25
101	0x6b	107
102	0x28	40
103	0xfa	-6
104	0xf4	-12
105	0x99	-103
106	0x23	35
107	0x64	100
108	0x46	70
109	0xf6	-10
110	0x81	-127
111	0xde	-34
112	0x6b	107
113	0xaa	-86
114	0x6a	106
115	0x03	3
116	0x90	-112
117	0xed	-19
118	0x00	0
119	0xca	-54
120	0x66	102
121	0xfb	-5
122	0xa3	-93
123	0x56	86
124	0x91	-111
125	0x6e	110
126	0x23	35
127	0x36	54

model_1/head/Conv2D i1 [32, 1, 1, 96]
0	0xd5	-43
1	0xd0	-48
2	0x63	99
3	0xfe	-2
4	0x35	53
5	0xe5	-27
6	0xb5	-75
7	0x9a	-102
8	0x36	54
9	0xaf	-81
10	0x9f	-97
11	0x01	1
12	0x39	57
13	0x0a	10
14	0xe4	-28
15	0x28	40
16	0xd3	-45
17	0xe7	-25
18	0xbb	-69
19	0xd4	-44
20	0xbf	-65
21	0xa5	-91
22	0x05	5
23	0x67	103
24	0x92	-110
25	0x11	17
26	0x4c	76
27	0xda	-38
28	0x68	104
29	0x12	18
30	0xec	-20
31	0xcc	-52
32	0x4e	78
33	0xcb	-53
34	0xa4	-92
35	0x2f	47
36	0x9d	-99
37	0xbb	-69
38	0x91	-111
39	0x1e	30
40	0x48	72
41	0xb4	-76
42	0xa9	-87
43	0x5c	92
44	0x39	57
45	0x9c	-100
46	0x62	98
47	0xf3	-13
48	0x14	20
49	0xc8	-56
50	0xd3	-45
51	0x59	89
52	0xb7	-73
53	0xca	-54
54	0xb2	-78
55	0x66	102
56	0x11	17
57	0x32	50
58	0x62	98
59	0x9a	-102
60	0xb7	-73
61	0x50	80
62	0xd1	-47
63	0x32	50
64	0xe1	-31
65	0x13	19
66	0x45	69
67	0x58	88
68	0x33	51
69	0x52	82
70	0x53	83
71	0x91	-111
72	0x4e	78
73	0xb1	-79
74	0x2c	44
75	0x4d	77
76	0xa9	-87
77	0x0d	13
78	0xce	-50
79	0x02	2
80	0x37	55
81	0x0d	13
82	0x4e	78
83	0x03	3
84	0xce	-50
85	0xdd	-35
86	0xb1	-79
87	0x69	105
88	0x1c	28
89	0x73	115
90	0xff	-1
91	0x81	-127
92	0x11	17
93	0x48	72
94	0x19	25
95	0x01	1
96	0xdf	-33
97	0x27	39
98	0xca	-54
99	0x05	5
100	0xe6	-26
101	0x5c	92
102	0x24	36
103	0x1c	28
104	0x46	70
105	0xb3	-77
106	0xac	-84
107	0x5f	95
108	0x44	68
109	0xf5	-11
110	0x19	25
111	0x4e	78
112	0x69	105
113	0xd1	-47
114	0x05	5
115	0x7f	127
116	0xd0	-48
117	0xfe	-2
118	0x2e	46
119	0x1d	29
120	0x2c	44
121	0x0e	14
122	0xd5	-43
123	0x5f	95
124	0x07	7
125	0x09	9
126	0x62	98
127	0xce	-50
128	0x45	69
129	0x64	100
130	0xf6	-10
131	0x25	37
132	0x44	68
133	0x3d	61
134	0x17	23
135	0xc5	-59
136	0xc8	-56
137	0x12	18
138	0xed	-19
139	0xbb	-69
140	0xdd	-35
141	0x2c	44
142	0xee	-18
143	0xd2	-46
144	0xee	-18
145	0xa7	-89
146	0x73	115
147	0x41	65
148	0x07	7
149	0x53	83
150	0xb3	-77
151	0xc1	-63
152	0x03	3
153	0x65	101
154	0x4c	76
155	0x5b	91
156	0xd3	-45
157	0x68	104
158	0xd2	-46
159	0xac	-84
160	0xdb	-37
161	0x25	37
162	0x4a	74
163	0x2b	43
164	0x58	88
165	0x1e	30
166	0x20	32
167	0x18	24
168	0xaf	-81
169	0x65	101
170	0xcf	-49
171	0x37	55
172	0x54	84
173	0xe3	-29
174	0xdb	-37
175	0x48	72
176	0xb1	-79
177	0x5e	94
178	0xc9	-55
179	0x9f	-97
180	0x1e	30
181	0x75	117
182	0xc6	-58
183	0xc2	-62
184	0x43	67
185	0x42	66
186	0x4f	79
187	0x28	40
188	0x52	82
189	0x47	71
190	0x14	20
191	0x06	6
192	0x26	38
193	0x23	35
194	0xb0	-80
195	0x51	81
196	0xd7	-41
197	0xa6	-90
198	0x5b	91
199	0x5a	90
200	0x9e	-98
201	0x55	85
202	0xd9	-39
203	0x78	120
204	0x5c	92
205	0xe8	-24
206	0x53	83
207	0x84	-124
208	0xcc	-52
209	0xed	-19
210	0x11	17
211	0x31	49
212	0xab	-85
213	0xf0	-16
214	0x6c	108
215	0x17	23
216	0xdc	-36
217	0x60	96
218	0x70	112
219	0x01	1
220	0xbb	-69
221	0x57	87
222	0x55	85
223	0x67	103
224	0xaa	-86
225	0xeb	-21
226	0x9e	-98
227	0x90	-112
228	0xa0	-96
229	0x66	102
230	0x52	82
231	0xe5	-27
232	0x90	-112
233	0xb5	-75
234	0x0e	14
235	0xf4	-12
236	0xb1	-79
237	0x77	119
238	0xec	-20
239	0xb3	-77
240	0x60	96
241	0x26	38
242	0x55	85
243	0xb2	-78
244	0xcb	-53
245	0x3d	61
246	0x27	39
247	0x21	33
248	0xc2	-62
249	0x58	88
250	0xb7	-73
251	0xf4	-12
252	0xe9	-23
253	0x35	53
254	0xcf	-49
255	0x4e	78

model_1/block_6_expand/Conv2D i1 [96, 1, 1, 16]
0	0xea	-22
1	0x5c	92
2	0x01	1
3	0x81	-127
4	0xd8	-40
5	0xe5	-27
6	0xf5	-11
7	0xbd	-67
8	0xde	-34
9	0x1c	28
10	0xf9	-7
11	0x3c	60
12	0x0d	13
13	0xba	-70
14	0xd1	-47
15	0x2c	44
16	0xe4	-28
17	0x0e	14
18	0xc4	-60
19	0x10	16
20	0xd2	-46
21	0xed	-19
22	0x29	41
23	0xa4	-92
24	0x5a	90
25	0x41	65
26	0xae	-82
27	0x1c	28
28	0x21	33
29	0x14	20
30	0x24	36
31	0x81	-127
32	0x0d	13
33	0x10	16
34	0xee	-18
35	0x37	55
36	0x37	55
37	0x1b	27
38	0xcc	-52
39	0xbb	-69
40	0x7f	127
41	0xcc	-52
42	0x08	8
43	0x05	5
44	0xf3	-13
45	0x4f	79
46	0xbc	-68
47	0xfd	-3
48	0x3d	61
49	0x97	-105
50	0x0d	13
51	0x8f	-113
52	0x0a	10
53	0xef	-17
54	0x0a	10
55	0xef	-17
56	0x7f	127
57	0xe1	-31
58	0x4c	76
59	0x30	48
60	0xfb	-5
61	0x25	37
62	0x0b	11
63	0x6c	108
64	0xa8	-88
65	0x2d	45
66	0x16	22
67	0x2e	46
68	0x02	2
69	0xf8	-8
70	0x19	25
71	0x34	52
72	0xf2	-14
73	0xec	-20
74	0x0b	11
75	0xd9	-39
76	0x81	-127
77	0x00	0
78	0xec	-20
79	0x32	50
80	0x10	16
81	0x4c	76
82	0x57	87
83	0x04	4
84	0x28	40
85	0x40	64
86	0xb9	-71
87	0x41	65
88	0xd9	-39
89	0x2f	47
90	0xf4	-12
91	0xe7	-25
92	0x0f	15
93	0xdc	-36
94	0x81	-127
95	0xe8	-24
96	0x24	36
97	0xbf	-65
98	0x7f	127
99	0x84	-124
100	0x1f	31
101	0x13	19
102	0xdc	-36
103	0x69	105
104	0xb8	-72
105	0x89	-119
106	0x1d	29
107	0xe5	-27
108	0x06	6
109	0x60	96
110	0xd9	-39
111	0x69	105
112	0x25	37
113	0x7a	122
114	0xd5	-43
115	0xb5	-75
116	0x68	104
117	0x08	8
118	0x13	19
119	0xcc	-52
120	0x7f	127
121	0x66	102
122	0xed	-19
123	0x0d	13
124	0x1a	26
125	0xef	-17
126	0x4d	77
127	0x46	70
128	0x19	25
129	0xa9	-87
130	0x0e	14
131	0xa1	-95
132	0x1d	29
133	0xc2	-62
134	0x15	21
135	0xb2	-78
136	0x10	16
137	0x4c	76
138	0x46	70
139	0xef	-17
140	0x1e	30
141	0x7f	127
142	0x4e	78
143	0x3a	58
144	0x05	5
145	0xd6	-42
146	0x04	4
147	0x7f	127
148	0x1e	30
149	0xfb	-5
150	0x19	25
151	0xd3	-45
152	0xba	-70
153	0x67	103
154	0x19	25
155	0xee	-18
156	0x0c	12
157	0xd4	-44
158	0xf6	-10
159	0xf6	-10
160	0xf4	-12
161	0x1b	27
162	0xc9	-55
163	0x81	-127
164	0xfc	-4
165	0x09	9
166	0xfb	-5
167	0x2b	43
168	0x2f	47
169	0xe0	-32
170	0x1d	29
171	0xf1	-15
172	0xd6	-42
173	0xc8	-56
174	0xf9	-7
175	0x24	36
176	0xfb	-5
177	0x11	17
178	0x16	22
179	0xec	-20
180	0x64	100
181	0xf0	-16
182	0x58	88
183	0xb6	-74
184	0xaa	-86
185	0x20	32
186	0x06	6
187	0x31	49
188	0xfb	-5
189	0x7f	127
190	0xaa	-86
191	0xe1	-31
192	0x70	112
193	0xf9	-7
194	0x81	-127
195	0xb8	-72
196	0x32	50
197	0xe8	-24
198	0x3e	62
199	0xf3	-13
200	0xec	-20
201	0x58	88
202	0x9e	-98
203	0xb3	-77
204	0x03	3
205	0x65	101
206	0xc6	-58
207	0x39	57
208	0xe3	-29
209	0x05	5
210	0xe6	-26
211	0x0e	14
212	0x08	8
213	0x81	-127
214	0xf8	-8
215	0x1c	28
216	0x11	17
217	0xed	-19
218	0x0d	13
219	0x06	6
220	0x02	2
221	0xfb	-5
222	0x09	9
223	0x0d	13
224	0x13	19
225	0xf8	-8
226	0x60	96
227	0xcd	-51
228	0x53	83
229	0x01	1
230	0x81	-127
231	0x92	-110
232	0xd8	-40
233	0xca	-54
234	0x3a	58
235	0x06	6
236	0xe8	-24
237	0xa7	-89
238	0xf3	-13
239	0xd4	-44
240	0xa5	-91
241	0x33	51
242	0xe1	-31
243	0xda	-38
244	0xfc	-4
245	0x02	2
246	0x7f	127
247	0x3a	58
248	0xe9	-23
249	0x16	22
250	0x47	71
251	0xf1	-15
252	0xe9	-23
253	0x3b	59
254	0x44	68
255	0xfc	-4

model_1/block_5_project/Conv2D i1 [16, 1, 1, 96]
0	0xfb	-5
1	0xed	-19
2	0x0a	10
3	0xe1	-31
4	0x13	19
5	0xff	-1
6	0xe1	-31
7	0x0c	12
8	0x25	37
9	0x00	0
10	0xee	-18
11	0x0e	14
12	0xff	-1
13	0xf0	-16
14	0xe7	-25
15	0x08	8
16	0xfe	-2
17	0x0d	13
18	0xf6	-10
19	0xfb	-5
20	0xf7	-9
21	0xd2	-46
22	0x0c	12
23	0x08	8
24	0xfb	-5
25	0x12	18
26	0xfc	-4
27	0x7f	127
28	0x29	41
29	0xd3	-45
30	0x36	54
31	0xeb	-21
32	0x03	3
33	0x12	18
34	0x07	7
35	0x08	8
36	0xf8	-8
37	0x12	18
38	0xe4	-28
39	0x0f	15
40	0xff	-1
41	0x0c	12
42	0x09	9
43	0x21	33
44	0x02	2
45	0xff	-1
46	0x0b	11
47	0x0a	10
48	0x1b	27
49	0x0b	11
50	0xfa	-6
51	0x0d	13
52	0x1e	30
53	0xeb	-21
54	0xf0	-16
55	0x50	80
56	0x07	7
57	0x11	17
58	0xeb	-21
59	0xe1	-31
60	0x01	1
61	0x15	21
62	0x0b	11
63	0xf3	-13
64	0xda	-38
65	0xc0	-64
66	0xf7	-9
67	0x43	67
68	0x08	8
69	0x0a	10
70	0x15	21
71	0xed	-19
72	0x06	6
73	0xdd	-35
74	0xf6	-10
75	0xe8	-24
76	0xef	-17
77	0x10	16
78	0xfe	-2
79	0xf4	-12
80	0xf8	-8
81	0xe2	-30
82	0x1d	29
83	0x16	22
84	0x00	0
85	0x01	1
86	0xf6	-10
87	0x9b	-101
88	0xff	-1
89	0xed	-19
90	0x04	4
91	0xfd	-3
92	0x32	50
93	0xd3	-45
94	0xe2	-30
95	0xf5	-11
96	0x13	19
97	0xb5	-75
98	0xb3	-77
99	0xc9	-55
100	0x7d	125
101	0xed	-19
102	0x50	80
103	0x0b	11
104	0xf5	-11
105	0x81	-127
106	0xe0	-32
107	0xdf	-33
108	0x0d	13
109	0xd1	-47
110	0xca	-54
111	0x44	68
112	0xc0	-64
113	0x10	16
114	0x2c	44
115	0x1d	29
116	0x1c	28
117	0x15	21
118	0xf6	-10
119	0xcb	-53
120	0x0c	12
121	0x0a	10
122	0xef	-17
123	0xe5	-27
124	0x28	40
125	0xf9	-7
126	0xc6	-58
127	0x21	33
128	0xfe	-2
129	0x2e	46
130	0x0e	14
131	0xf9	-7
132	0x06	6
133	0x07	7
134	0x06	6
135	0x2f	47
136	0xbc	-68
137	0x2a	42
138	0xda	-38
139	0xfa	-6
140	0xde	-34
141	0x4f	79
142	0x0b	11
143	0xfb	-5
144	0x24	36
145	0xd0	-48
146	0x05	5
147	0xb1	-79
148	0xd0	-48
149	0x24	36
150	0x24	36
151	0x36	54
152	0xdf	-33
153	0xf8	-8
154	0xe4	-28
155	0xef	-17
156	0x17	23
157	0xfe	-2
158	0x06	6
159	0xd4	-44
160	0xba	-70
161	0x6c	108
162	0xf5	-11
163	0x96	-106
164	0xe8	-24
165	0xde	-34
166	0xf0	-16
167	0x15	21
168	0x29	41
169	0x98	-104
170	0xdb	-37
171	0x06	6
172	0x24	36
173	0xbc	-68
174	0x20	32
175	0x18	24
176	0x07	7
177	0xe4	-28
178	0x13	19
179	0xfe	-2
180	0xca	-54
181	0x3f	63
182	0xf0	-16
183	0x2c	44
184	0x18	24
185	0xcb	-53
186	0x03	3
187	0x10	16
188	0x26	38
189	0xf0	-16
190	0x37	55
191	0x77	119
192	0xf9	-7
193	0x52	82
194	0xa1	-95
195	0x02	2
196	0x30	48
197	0x50	80
198	0x14	20
199	0x2a	42
200	0xf7	-9
201	0xa6	-90
202	0xfe	-2
203	0x01	1
204	0x03	3
205	0x0a	10
206	0x21	33
207	0x27	39
208	0x0e	14
209	0xdf	-33
210	0xee	-18
211	0x4c	76
212	0x1d	29
213	0x1b	27
214	0x51	81
215	0x27	39
216	0x3e	62
217	0x0b	11
218	0x12	18
219	0xab	-85
220	0x1b	27
221	0xf9	-7
222	0x3e	62
223	0xd6	-42
224	0x0d	13
225	0x22	34
226	0xe8	-24
227	0x0b	11
228	0x81	-127
229	0xbb	-69
230	0x0c	12
231	0x24	36
232	0x12	18
233	0xbb	-69
234	0xec	-20
235	0xd7	-41
236	0x0b	11
237	0xf1	-15
238	0xff	-1
239	0x3b	59
240	0xc9	-55
241	0x0d	13
242	0xe3	-29
243	0xee	-18
244	0x4b	75
245	0xfc	-4
246	0x0b	11
247	0x32	50
248	0x26	38
249	0x1f	31
250	0x1f	31
251	0xf7	-9
252	0x03	3
253	0xfe	-2
254	0x15	21
255	0xe3	-29

model_1/block_5_depthwise_BN/FusedBatchNormV3;model_1/block_5_depthwise/depthwise;model_1/block_6_expand/Conv2D i1 [1, 3, 3, 96]
0	0xd1	-47
1	0xb6	-74
2	0xf6	-10
3	0x7f	127
4	0x15	21
5	0x42	66
6	0x4c	76
7	0xbf	-65
8	0xf1	-15
9	0xf2	-14
10	0xf1	-15
11	0xf9	-7
12	0xe3	-29
13	0xfb	-5
14	0x25	37
15	0x01	1
16	0xf5	-11
17	0xd3	-45
18	0x1a	26
19	0x15	21
20	0x16	22
21	0x81	-127
22	0x7f	127
23	0x08	8
24	0xae	-82
25	0x07	7
26	0x35	53
27	0xe2	-30
28	0x81	-127
29	0x81	-127
30	0x24	36
31	0x14	20
32	0x0b	11
33	0x1b	27
34	0x3e	62
35	0xf2	-14
36	0xe1	-31
37	0xf6	-10
38	0x20	32
39	0xf9	-7
40	0xf0	-16
41	0x1b	27
42	0x92	-110
43	0x4b	75
44	0x15	21
45	0xb9	-71
46	0x25	37
47	0x2e	46
48	0xed	-19
49	0x34	52
50	0xea	-22
51	0x10	16
52	0x07	7
53	0xf7	-9
54	0x13	19
55	0x2d	45
56	0xa0	-96
57	0xce	-50
58	0xba	-70
59	0xec	-20
60	0xf9	-7
61	0x00	0
62	0x0b	11
63	0x25	37
64	0x43	67
65	0xe8	-24
66	0x4d	77
67	0x16	22
68	0xf9	-7
69	0x10	16
70	0x12	18
71	0x7f	127
72	0x16	22
73	0x16	22
74	0x1a	26
75	0x00	0
76	0xf8	-8
77	0x12	18
78	0x7f	127
79	0xfd	-3
80	0xef	-17
81	0x15	21
82	0xe6	-26
83	0x15	21
84	0x7f	127
85	0x15	21
86	0xb5	-75
87	0xf2	-14
88	0x04	4
89	0xdf	-33
90	0xf0	-16
91	0xd9	-39
92	0x04	4
93	0xe2	-30
94	0xf1	-15
95	0x1d	29
96	0x7f	127
97	0x81	-127
98	0x48	72
99	0x69	105
100	0xd5	-43
101	0x7f	127
102	0x2b	43
103	0x86	-122
104	0x42	66
105	0x08	8
106	0xee	-18
107	0x7f	127
108	0x7f	127
109	0xa3	-93
110	0xf3	-13
111	0x16	22
112	0x0b	11
113	0x7f	127
114	0x7f	127
115	0x8c	-116
116	0x7f	127
117	0xa7	-89
118	0x51	81
119	0x42	66
120	0x81	-127
121	0x8b	-117
122	0xbe	-66
123	0xdf	-33
124	0xcd	-51
125	0x31	49
126	0xc4	-60
127	0xe9	-23
128	0x9a	-102
129	0x38	56
130	0x81	-127
131	0xb4	-76
132	0xd6	-42
133	0xf1	-15
134	0xc9	-55
135	0x4b	75
136	0xff	-1
137	0x7f	127
138	0x7f	127
139	0x56	86
140	0xc8	-56
141	0x8b	-117
142	0x89	-119
143	0xcf	-49
144	0xf1	-15
145	0x81	-127
146	0x2b	43
147	0x51	81
148	0x46	70
149	0xdf	-33
150	0x33	51
151	0x53	83
152	0xcf	-49
153	0x2a	42
154	0xa4	-92
155	0x8d	-115
156	0xd1	-47
157	0xd9	-39
158	0xc4	-60
159	0x41	65
160	0x48	72
161	0xc6	-58
162	0x1b	27
163	0x2b	43
164	0xb1	-79
165	0x24	36
166	0xed	-19
167	0x5b	91
168	0x71	113
169	0x7f	127
170	0x0c	12
171	0x14	20
172	0x03	3
173	0x3b	59
174	0xdf	-33
175	0x36	54
176	0x42	66
177	0x7f	127
178	0x7f	127
179	0xea	-22
180	0xfa	-6
181	0x55	85
182	0x92	-110
183	0x7f	127
184	0x8d	-115
185	0x9f	-97
186	0x03	3
187	0x81	-127
188	0xaa	-86
189	0x81	-127
190	0xdd	-35
191	0x70	112
192	0xb5	-75
193	0xf3	-13
194	0x1a	26
195	0xb0	-80
196	0x0e	14
197	0xf2	-14
198	0x44	68
199	0xf8	-8
200	0x4d	77
201	0xe1	-31
202	0xe4	-28
203	0x11	17
204	0xef	-17
205	0x06	6
206	0xf8	-8
207	0xf5	-11
208	0xf5	-11
209	0xf1	-15
210	0x07	7
211	0xf9	-7
212	0xe5	-27
213	0x95	-107
214	0x20	32
215	0x02	2
216	0x83	-125
217	0x63	99
218	0x01	1
219	0xca	-54
220	0x7c	124
221	0x35	53
222	0xf0	-16
223	0x08	8
224	0xf9	-7
225	0x0f	15
226	0x0f	15
227	0xe3	-29
228	0xf7	-9
229	0x22	34
230	0x11	17
231	0x1e	30
232	0x1a	26
233	0x0c	12
234	0x8b	-117
235	0x44	68
236	0x10	16
237	0xea	-22
238	0x24	36
239	0x10	16
240	0xf1	-15
241	0x0b	11
242	0xf1	-15
243	0x03	3
244	0xfb	-5
245	0xfe	-2
246	0x02	2
247	0x15	21
248	0xb7	-73
249	0x06	6
250	0xcf	-49
251	0x32	50
252	0xfb	-5
253	0x29	41
254	0x25	37
255	0x04	4

model_1/block_5_expand/Conv2D i1 [96, 1, 1, 16]
0	0x0e	14
1	0x67	103
2	0x0b	11
3	0x31	49
4	0x26	38
5	0x2b	43
6	0xd8	-40
7	0xd5	-43
8	0x1d	29
9	0xf0	-16
10	0xa9	-87
11	0x5a	90
12	0x18	24
13	0x81	-127
14	0xe7	-25
15	0x91	-111
16	0x11	17
17	0x34	52
18	0xee	-18
19	0xec	-20
20	0x1c	28
21	0x03	3
22	0x72	114
23	0x81	-127
24	0xfc	-4
25	0x67	103
26	0xf8	-8
27	0xe1	-31
28	0xec	-20
29	0xe3	-29
30	0x14	20
31	0xe9	-23
32	0x81	-127
33	0x1d	29
34	0xdd	-35
35	0xe5	-27
36	0x2a	42
37	0xea	-22
38	0xff	-1
39	0x4f	79
40	0xdb	-37
41	0x2a	42
42	0x5c	92
43	0xfc	-4
44	0xc4	-60
45	0x0d	13
46	0x24	36
47	0xcf	-49
48	0xd1	-47
49	0x39	57
50	0x3c	60
51	0x2c	44
52	0xe7	-25
53	0x36	54
54	0x2e	46
55	0x7f	127
56	0x14	20
57	0x18	24
58	0xa7	-89
59	0xdd	-35
60	0x21	33
61	0xac	-84
62	0xa3	-93
63	0xd3	-45
64	0x0e	14
65	0xd7	-41
66	0x32	50
67	0x7e	126
68	0xad	-83
69	0x7f	127
70	0x0e	14
71	0x33	51
72	0x57	87
73	0x0a	10
74	0x09	9
75	0x4c	76
76	0x1b	27
77	0x13	19
78	0x83	-125
79	0xf0	-16
80	0xfb	-5
81	0xd6	-42
82	0x32	50
83	0xf3	-13
84	0x21	33
85	0xdf	-33
86	0xe6	-26
87	0x00	0
88	0xba	-70
89	0x2f	47
90	0xe8	-24
91	0x81	-127
92	0xfd	-3
93	0x23	35
94	0xbf	-65
95	0xd5	-43
96	0xf9	-7
97	0x0b	11
98	0x29	41
99	0x04	4
100	0x38	56
101	0x24	36
102	0xd7	-41
103	0xd3	-45
104	0x07	7
105	0xee	-18
106	0x41	65
107	0x0f	15
108	0x7f	127
109	0xeb	-21
110	0xef	-17
111	0xcf	-49
112	0x1d	29
113	0x00	0
114	0x7f	127
115	0xfd	-3
116	0xc6	-58
117	0xe2	-30
118	0x00	0
119	0xf7	-9
120	0xc7	-57
121	0x0c	12
122	0xb3	-77
123	0xf4	-12
124	0x14	20
125	0xf2	-14
126	0x1f	31
127	0xe1	-31
128	0x33	51
129	0x15	21
130	0x41	65
131	0x15	21
132	0xcf	-49
133	0x51	81
134	0x21	33
135	0x31	49
136	0x33	51
137	0x15	21
138	0x30	48
139	0xde	-34
140	0xe7	-25
141	0x12	18
142	0x81	-127
143	0xe0	-32
144	0x27	39
145	0xac	-84
146	0x52	82
147	0x2d	45
148	0x2b	43
149	0xce	-50
150	0xc4	-60
151	0x1f	31
152	0x33	51
153	0xe6	-26
154	0x34	52
155	0xd9	-39
156	0xf5	-11
157	0xf6	-10
158	0x81	-127
159	0xb5	-75
160	0xc6	-58
161	0x81	-127
162	0xfe	-2
163	0xe4	-28
164	0xb8	-72
165	0x16	22
166	0x01	1
167	0x2e	46
168	0x47	71
169	0x6c	108
170	0x08	8
171	0x93	-109
172	0x02	2
173	0x02	2
174	0x4c	76
175	0x0c	12
176	0x4d	77
177	0xde	-34
178	0x11	17
179	0xbe	-66
180	0xab	-85
181	0xab	-85
182	0xa5	-91
183	0x81	-127
184	0xed	-19
185	0x12	18
186	0xfd	-3
187	0xdc	-36
188	0x04	4
189	0x0a	10
190	0x45	69
191	0xe7	-25
192	0xf2	-14
193	0x0c	12
194	0x0f	15
195	0xc9	-55
196	0xcb	-53
197	0xf7	-9
198	0xc0	-64
199	0xd9	-39
200	0xf2	-14
201	0xcf	-49
202	0xfc	-4
203	0x0a	10
204	0xe8	-24
205	0x7f	127
206	0x61	97
207	0x34	52
208	0xde	-34
209	0x81	-127
210	0x99	-103
211	0x10	16
212	0x04	4
213	0xe1	-31
214	0x14	20
215	0xb1	-79
216	0x28	40
217	0x3a	58
218	0xd8	-40
219	0x18	24
220	0x17	23
221	0x32	50
222	0x78	120
223	0x2e	46
224	0x1e	30
225	0xa7	-89
226	0x49	73
227	0x31	49
228	0x1d	29
229	0x20	32
230	0xf5	-11
231	0x76	118
232	0x04	4
233	0x38	56
234	0x12	18
235	0xd9	-39
236	0x16	22
237	0x1b	27
238	0xaf	-81
239	0x7f	127
240	0x00	0
241	0xf8	-8
242	0xf8	-8
243	0x2a	42
244	0x12	18
245	0xfa	-6
246	0x59	89
247	0xfe	-2
248	0xf4	-12
249	0x81	-127
250	0x1b	27
251	0xcf	-49
252	0xf1	-15
253	0xef	-17
254	0xef	-17
255	0xe7	-25

model_1/block_4_project/Conv2D i1 [16, 1, 1, 96]
0	0x01	1
1	0xfc	-4
2	0xed	-19
3	0x0e	14
4	0x21	33
5	0x42	66
6	0xf0	-16
7	0xe6	-26
8	0x2a	42
9	0x0c	12
10	0x08	8
11	0x07	7
12	0xeb	-21
13	0x04	4
14	0x1c	28
15	0x4c	76
16	0xfd	-3
17	0x01	1
18	0xf3	-13
19	0xfb	-5
20	0x6a	106
21	0xb9	-71
22	0x02	2
23	0xe6	-26
24	0xe2	-30
25	0xed	-19
26	0xdd	-35
27	0xa5	-91
28	0xf4	-12
29	0x07	7
30	0x29	41
31	0x32	50
32	0x74	116
33	0xf1	-15
34	0x02	2
35	0x00	0
36	0x0b	11
37	0xec	-20
38	0xe6	-26
39	0x05	5
40	0xec	-20
41	0x0f	15
42	0x04	4
43	0xe3	-29
44	0xfa	-6
45	0xe6	-26
46	0xf0	-16
47	0x20	32
48	0xf1	-15
49	0x08	8
50	0x08	8
51	0x01	1
52	0xdc	-36
53	0xf1	-15
54	0xf9	-7
55	0x00	0
56	0x35	53
57	0x21	33
58	0xed	-19
59	0xd7	-41
60	0xcc	-52
61	0x1f	31
62	0xf5	-11
63	0xee	-18
64	0x19	25
65	0x00	0
66	0x2f	47
67	0xf2	-14
68	0x06	6
69	0xf7	-9
70	0xfb	-5
71	0xdf	-33
72	0xc2	-62
73	0xfe	-2
74	0xfc	-4
75	0xf6	-10
76	0xfc	-4
77	0xb4	-76
78	0x06	6
79	0xf9	-7
80	0x20	32
81	0xf6	-10
82	0xc6	-58
83	0xca	-54
84	0x19	25
85	0xf7	-9
86	0xfa	-6
87	0x16	22
88	0xfd	-3
89	0x0f	15
90	0x0b	11
91	0xe7	-25
92	0x0e	14
93	0x0c	12
94	0xf3	-13
95	0x7f	127
96	0x3f	63
97	0xaf	-81
98	0x27	39
99	0x45	69
100	0x06	6
101	0xb5	-75
102	0x18	24
103	0xd6	-42
104	0xd4	-44
105	0xaa	-86
106	0xed	-19
107	0x10	16
108	0x1f	31
109	0xca	-54
110	0xe0	-32
111	0xa0	-96
112	0xb0	-80
113	0xfa	-6
114	0x0e	14
115	0x14	20
116	0xd7	-41
117	0x9d	-99
118	0xdb	-37
119	0x19	25
120	0x7f	127
121	0xdd	-35
122	0xd8	-40
123	0x36	54
124	0xdf	-33
125	0x53	83
126	0xf9	-7
127	0x33	51
128	0x12	18
129	0xf9	-7
130	0xd1	-47
131	0x0e	14
132	0xf6	-10
133	0xfc	-4
134	0x22	34
135	0xee	-18
136	0xed	-19
137	0xa8	-88
138	0x40	64
139	0xe7	-25
140	0xcf	-49
141	0x08	8
142	0x31	49
143	0xf7	-9
144	0x26	38
145	0x0f	15
146	0x05	5
147	0xda	-38
148	0x4f	79
149	0xd5	-43
150	0x25	37
151	0xd6	-42
152	0xec	-20
153	0x0e	14
154	0xe1	-31
155	0xb8	-72
156	0x2a	42
157	0xbb	-69
158	0x20	32
159	0xd7	-41
160	0xfe	-2
161	0xb8	-72
162	0x2c	44
163	0x22	34
164	0x2c	44
165	0x38	56
166	0xbb	-69
167	0xd7	-41
168	0x81	-127
169	0x25	37
170	0xf1	-15
171	0x3e	62
172	0x1e	30
173	0x60	96
174	0x11	17
175	0xfb	-5
176	0x43	67
177	0x1b	27
178	0xbf	-65
179	0x29	41
180	0xa8	-88
181	0x44	68
182	0x05	5
183	0x32	50
184	0xce	-50
185	0xf8	-8
186	0x1c	28
187	0x0f	15
188	0x04	4
189	0xda	-38
190	0x1a	26
191	0xec	-20
192	0x09	9
193	0x0b	11
194	0xf2	-14
195	0xf8	-8
196	0x03	3
197	0x0c	12
198	0xf6	-10
199	0x09	9
200	0x36	54
201	0xf9	-7
202	0xff	-1
203	0x32	50
204	0x0a	10
205	0xe6	-26
206	0x3e	62
207	0xf9	-7
208	0xee	-18
209	0xfd	-3
210	0x12	18
211	0xf8	-8
212	0xe5	-27
213	0xca	-54
214	0xfa	-6
215	0xcd	-51
216	0xe5	-27
217	0xf1	-15
218	0xdc	-36
219	0x0d	13
220	0xfc	-4
221	0x19	25
222	0x56	86
223	0xd1	-47
224	0x02	2
225	0xcd	-51
226	0xf3	-13
227	0x2d	45
228	0x11	17
229	0x7f	127
230	0xce	-50
231	0xe0	-32
232	0xff	-1
233	0xf0	-16
234	0xfa	-6
235	0x1a	26
236	0xe1	-31
237	0xd2	-46
238	0xcc	-52
239	0x01	1
240	0x0f	15
241	0x11	17
242	0xea	-22
243	0xec	-20
244	0x28	40
245	0x03	3
246	0xee	-18
247	0xe3	-29
248	0xe4	-28
249	0x0f	15
250	0xf8	-8
251	0x15	21
252	0xf4	-12
253	0x0f	15
254	0x37	55
255	0x4b	75

model_1/block_4_depthwise_BN/FusedBatchNormV3;model_1/block_4_depthwise/depthwise;model_1/block_6_expand/Conv2D i1 [1, 3, 3, 96]
0	0xef	-17
1	0x08	8
2	0xec	-20
3	0x73	115
4	0xec	-20
5	0x19	25
6	0xc0	-64
7	0xca	-54
8	0x15	21
9	0xfb	-5
10	0x62	98
11	0xf7	-9
12	0x02	2
13	0xf8	-8
14	0xfc	-4
15	0x3d	61
16	0x04	4
17	0x0f	15
18	0xcd	-51
19	0x03	3
20	0x48	72
21	0x02	2
22	0x1d	29
23	0xe0	-32
24	0x03	3
25	0x10	16
26	0x26	38
27	0x30	48
28	0x18	24
29	0x0b	11
30	0x19	25
31	0x30	48
32	0x00	0
33	0x18	24
34	0x0a	10
35	0xf1	-15
36	0x04	4
37	0x33	51
38	0xb8	-72
39	0xe3	-29
40	0x15	21
41	0x09	9
42	0x1e	30
43	0x0f	15
44	0xac	-84
45	0xc1	-63
46	0x18	24
47	0xfa	-6
48	0xf6	-10
49	0xec	-20
50	0xf8	-8
51	0xfa	-6
52	0x33	51
53	0x06	6
54	0xfa	-6
55	0x01	1
56	0x02	2
57	0xdc	-36
58	0x17	23
59	0xe1	-31
60	0x1b	27
61	0xf9	-7
62	0x7f	127
63	0x1b	27
64	0xf2	-14
65	0xf6	-10
66	0x05	5
67	0xcf	-49
68	0x46	70
69	0x23	35
70	0xfe	-2
71	0x01	1
72	0x4e	78
73	0xdb	-37
74	0x45	69
75	0x02	2
76	0x13	19
77	0x81	-127
78	0x1d	29
79	0x3e	62
80	0x06	6
81	0x0c	12
82	0x7f	127
83	0xf7	-9
84	0x27	39
85	0x1b	27
86	0xe0	-32
87	0xec	-20
88	0x21	33
89	0xf8	-8
90	0xf1	-15
91	0x4f	79
92	0xfe	-2
93	0x12	18
94	0xfd	-3
95	0x0d	13
96	0xcf	-49
97	0x0f	15
98	0xf8	-8
99	0x10	16
100	0x33	51
101	0xfd	-3
102	0xf6	-10
103	0x81	-127
104	0x2d	45
105	0x0e	14
106	0x81	-127
107	0xfb	-5
108	0xed	-19
109	0xf2	-14
110	0x06	6
111	0x68	104
112	0x11	17
113	0xdd	-35
114	0xe7	-25
115	0xee	-18
116	0x53	83
117	0xa0	-96
118	0x7f	127
119	0x1b	27
120	0xc4	-60
121	0xe4	-28
122	0x97	-105
123	0xf5	-11
124	0x1e	30
125	0x21	33
126	0xcf	-49
127	0x14	20
128	0x7a	122
129	0x0a	10
130	0xf8	-8
131	0x00	0
132	0xe8	-24
133	0x7f	127
134	0xc4	-60
135	0x81	-127
136	0x09	9
137	0xed	-19
138	0xe4	-28
139	0x0b	11
140	0x2f	47
141	0x81	-127
142	0x7f	127
143	0xd2	-46
144	0xb3	-77
145	0x35	53
146	0x31	49
147	0x06	6
148	0x28	40
149	0xc1	-63
150	0x23	35
151	0x36	54
152	0x2b	43
153	0x2a	42
154	0x97	-105
155	0x59	89
156	0x7f	127
157	0x20	32
158	0x03	3
159	0xed	-19
160	0x2c	44
161	0xdb	-37
162	0x96	-106
163	0x00	0
164	0x28	40
165	0xe0	-32
166	0xef	-17
167	0x3d	61
168	0xce	-50
169	0xcf	-49
170	0x6a	106
171	0xf9	-7
172	0xe3	-29
173	0xc3	-61
174	0xdf	-33
175	0x3b	59
176	0xc0	-64
177	0x39	57
178	0xef	-17
179	0x09	9
180	0xf5	-11
181	0x2f	47
182	0x34	52
183	0xd8	-40
184	0xe3	-29
185	0x34	52
186	0xf3	-13
187	0x46	70
188	0x81	-127
189	0xde	-34
190	0x16	22
191	0x81	-127
192	0x00	0
193	0x00	0
194	0xe8	-24
195	0xb3	-77
196	0x08	8
197	0x14	20
198	0x27	39
199	0x12	18
200	0x01	1
201	0x00	0
202	0x04	4
203	0x3e	62
204	0x00	0
205	0xf3	-13
206	0xf7	-9
207	0x0e	14
208	0xef	-17
209	0x0f	15
210	0xe1	-31
211	0x0e	14
212	0x07	7
213	0x1a	26
214	0x15	21
215	0xdf	-33
216	0xff	-1
217	0xe3	-29
218	0x05	5
219	0x0c	12
220	0xf9	-7
221	0x06	6
222	0x2f	47
223	0xb2	-78
224	0x2d	45
225	0x0c	12
226	0x10	16
227	0xeb	-21
228	0x0e	14
229	0x07	7
230	0xd9	-39
231	0xeb	-21
232	0x07	7
233	0x03	3
234	0xee	-18
235	0x05	5
236	0x18	24
237	0xdc	-36
238	0x13	19
239	0xff	-1
240	0x07	7
241	0xf7	-9
242	0x05	5
243	0xfb	-5
244	0x05	5
245	0x06	6
246	0xfe	-2
247	0x08	8
248	0xfb	-5
249	0x2c	44
250	0x04	4
251	0x01	1
252	0x0c	12
253	0xed	-19
254	0x06	6
255	0xef	-17

model_1/block_4_expand/Conv2D i1 [96, 1, 1, 16]
0	0x4c	76
1	0xbc	-68
2	0x77	119
3	0x77	119
4	0x49	73
5	0xf3	-13
6	0x41	65
7	0xd6	-42
8	0x7f	127
9	0x16	22
10	0x8d	-115
11	0x8d	-115
12	0x36	54
13	0x36	54
14	0xef	-17
15	0xba	-70
16	0x2f	47
17	0x23	35
18	0x11	17
19	0xfd	-3
20	0x31	49
21	0x09	9
22	0x03	3
23	0x13	19
24	0x34	52
25	0x28	40
26	0xcc	-52
27	0x7f	127
28	0xdd	-35
29	0xd2	-46
30	0x67	103
31	0x9a	-102
32	0x24	36
33	0xd0	-48
34	0x0b	11
35	0x06	6
36	0xbb	-69
37	0x2a	42
38	0xb9	-71
39	0x3a	58
40	0xac	-84
41	0x93	-109
42	0x25	37
43	0x6d	109
44	0x29	41
45	0x87	-121
46	0x29	41
47	0x81	-127
48	0x7b	123
49	0x70	112
50	0xfb	-5
51	0x1c	28
52	0x91	-111
53	0xec	-20
54	0xca	-54
55	0xda	-38
56	0x08	8
57	0x08	8
58	0x7f	127
59	0xba	-70
60	0xc8	-56
61	0x49	73
62	0xdd	-35
63	0xc1	-63
64	0xfc	-4
65	0xfa	-6
66	0xf5	-11
67	0x0d	13
68	0xd4	-44
69	0x24	36
70	0xf6	-10
71	0x29	41
72	0xb0	-80
73	0xd0	-48
74	0xf9	-7
75	0xfb	-5
76	0x12	18
77	0x81	-127
78	0x3f	63
79	0x17	23
80	0x4c	76
81	0xed	-19
82	0x01	1
83	0xe4	-28
84	0xf3	-13
85	0xa7	-89
86	0xdd	-35
87	0x07	7
88	0xe7	-25
89	0x00	0
90	0x81	-127
91	0x02	2
92	0x2d	45
93	0x10	16
94	0x0d	13
95	0x4c	76
96	0x81	-127
97	0xc1	-63
98	0xee	-18
99	0x46	70
100	0xcc	-52
101	0x19	25
102	0xf2	-14
103	0x13	19
104	0x90	-112
105	0xbd	-67
106	0xbb	-69
107	0xbd	-67
108	0xee	-18
109	0x27	39
110	0x20	32
111	0x5c	92
112	0xf7	-9
113	0x09	9
114	0xb1	-79
115	0x23	35
116	0x25	37
117	0x81	-127
118	0xe0	-32
119	0x10	16
120	0xfd	-3
121	0xde	-34
122	0xfd	-3
123	0xf6	-10
124	0x0e	14
125	0x07	7
126	0xe8	-24
127	0x0f	15
128	0x22	34
129	0xaa	-86
130	0xf1	-15
131	0xe6	-26
132	0x13	19
133	0xf3	-13
134	0x94	-108
135	0xa4	-92
136	0xe2	-30
137	0x0d	13
138	0xa3	-93
139	0xd7	-41
140	0x81	-127
141	0x0a	10
142	0x14	20
143	0x1b	27
144	0x38	56
145	0xb2	-78
146	0x32	50
147	0x7f	127
148	0xed	-19
149	0x10	16
150	0xf9	-7
151	0xa0	-96
152	0x71	113
153	0x98	-104
154	0x05	5
155	0xcb	-53
156	0x0b	11
157	0x26	38
158	0xa3	-93
159	0x33	51
160	0xba	-70
161	0x82	-126
162	0x01	1
163	0xfe	-2
164	0x3f	63
165	0x5f	95
166	0xec	-20
167	0x29	41
168	0x4e	78
169	0x86	-122
170	0x81	-127
171	0x0f	15
172	0x2f	47
173	0xba	-70
174	0xb8	-72
175	0x55	85
176	0x2b	43
177	0xdb	-37
178	0x81	-127
179	0x28	40
180	0x33	51
181	0x19	25
182	0xda	-38
183	0x38	56
184	0x04	4
185	0xdc	-36
186	0xf6	-10
187	0xef	-17
188	0xeb	-21
189	0x22	34
190	0xc9	-55
191	0xf4	-12
192	0x76	118
193	0x81	-127
194	0xf8	-8
195	0x0f	15
196	0xee	-18
197	0xe5	-27
198	0xb1	-79
199	0xe7	-25
200	0x0b	11
201	0xb9	-71
202	0x8f	-113
203	0xdd	-35
204	0xd5	-43
205	0xef	-17
206	0x01	1
207	0x1b	27
208	0x23	35
209	0xe1	-31
210	0xd6	-42
211	0xc7	-57
212	0x4b	75
213	0x23	35
214	0xe0	-32
215	0x81	-127
216	0x1a	26
217	0xe8	-24
218	0x38	56
219	0x01	1
220	0x15	21
221	0xd8	-40
222	0x28	40
223	0xe9	-23
224	0xd6	-42
225	0x0b	11
226	0xb7	-73
227	0xe0	-32
228	0x48	72
229	0x81	-127
230	0x2f	47
231	0xc5	-59
232	0x33	51
233	0x1e	30
234	0xe8	-24
235	0xa5	-91
236	0x1c	28
237	0x66	102
238	0xfc	-4
239	0x1d	29
240	0x01	1
241	0x17	23
242	0x32	50
243	0x22	34
244	0x34	52
245	0xc3	-61
246	0xe8	-24
247	0x05	5
248	0x03	3
249	0xdb	-37
250	0xc6	-58
251	0xdb	-37
252	0x81	-127
253	0xd1	-47
254	0xdc	-36
255	0x34	52

model_1/block_3_project/Conv2D i1 [16, 1, 1, 48]
0	0xf4	-12
1	0xfc	-4
2	0xf7	-9
3	0x02	2
4	0x1e	30
5	0xf8	-8
6	0x0c	12
7	0x68	104
8	0xcf	-49
9	0x0c	12
10	0x21	33
11	0xf2	-14
12	0x13	19
13	0xf0	-16
14	0xf6	-10
15	0x16	22
16	0x15	21
17	0xed	-19
18	0xf1	-15
19	0xee	-18
20	0x4c	76
21	0xff	-1
22	0x0d	13
23	0x79	121
24	0xeb	-21
25	0x60	96
26	0xf7	-9
27	0xee	-18
28	0x27	39
29	0xf2	-14
30	0x1b	27
31	0xf0	-16
32	0xd5	-43
33	0x29	41
34	0x1d	29
35	0xd1	-47
36	0x18	24
37	0x2e	46
38	0x09	9
39	0xf5	-11
40	0x89	-119
41	0xd6	-42
42	0x19	25
43	0x30	48
44	0x36	54
45	0x17	23
46	0x81	-127
47	0xde	-34
48	0xd9	-39
49	0xf6	-10
50	0x15	21
51	0x0f	15
52	0xde	-34
53	0x12	18
54	0x03	3
55	0x39	57
56	0xd0	-48
57	0xe1	-31
58	0x00	0
59	0xd3	-45
60	0xea	-22
61	0xed	-19
62	0x02	2
63	0xf8	-8
64	0xe7	-25
65	0x7a	122
66	0xf6	-10
67	0x12	18
68	0x09	9
69	0x0a	10
70	0xea	-22
71	0xed	-19
72	0x1f	31
73	0xd1	-47
74	0x0d	13
75	0x17	23
76	0xe8	-24
77	0xa8	-88
78	0xe0	-32
79	0x0f	15
80	0xec	-20
81	0xfa	-6
82	0x21	33
83	0xfd	-3
84	0xf2	-14
85	0xdb	-37
86	0x04	4
87	0x0a	10
88	0xf0	-16
89	0xe2	-30
90	0x7f	127
91	0x0f	15
92	0xf9	-7
93	0xf8	-8
94	0x1c	28
95	0xed	-19
96	0xe7	-25
97	0xff	-1
98	0xf6	-10
99	0xdb	-37
100	0xf8	-8
101	0xc5	-59
102	0x06	6
103	0xf3	-13
104	0x00	0
105	0x0a	10
106	0x09	9
107	0x17	23
108	0x0a	10
109	0x02	2
110	0xf6	-10
111	0x05	5
112	0xfe	-2
113	0xe2	-30
114	0xe5	-27
115	0xf0	-16
116	0xfa	-6
117	0x03	3
118	0xfe	-2
119	0x81	-127
120	0xf0	-16
121	0x46	70
122	0xf3	-13
123	0x07	7
124	0xfe	-2
125	0xf2	-14
126	0xfd	-3
127	0xf6	-10
128	0xf9	-7
129	0x2e	46
130	0x10	16
131	0xfd	-3
132	0x16	22
133	0x0a	10
134	0x1d	29
135	0x06	6
136	0xe0	-32
137	0x03	3
138	0xed	-19
139	0xfa	-6
140	0xfa	-6
141	0xef	-17
142	0x10	16
143	0x0c	12
144	0xf4	-12
145	0x1b	27
146	0x01	1
147	0xe2	-30
148	0xf8	-8
149	0xfb	-5
150	0x05	5
151	0x02	2
152	0xec	-20
153	0xf4	-12
154	0x05	5
155	0x25	37
156	0x81	-127
157	0x06	6
158	0xfa	-6
159	0xfe	-2
160	0xff	-1
161	0x00	0
162	0xef	-17
163	0xf9	-7
164	0xdf	-33
165	0x04	4
166	0x0d	13
167	0x0f	15
168	0xf8	-8
169	0xfb	-5
170	0xfd	-3
171	0x17	23
172	0xf0	-16
173	0x12	18
174	0x06	6
175	0x10	16
176	0xff	-1
177	0x01	1
178	0x15	21
179	0x13	19
180	0xf4	-12
181	0x18	24
182	0x27	39
183	0x0d	13
184	0x08	8
185	0x02	2
186	0x13	19
187	0xe4	-28
188	0xff	-1
189	0xfb	-5
190	0x00	0
191	0x10	16
192	0x29	41
193	0xd5	-43
194	0x06	6
195	0x12	18
196	0x16	22
197	0x1f	31
198	0x10	16
199	0xeb	-21
200	0xe3	-29
201	0x06	6
202	0xe7	-25
203	0xe7	-25
204	0x00	0
205	0x0b	11
206	0x05	5
207	0x13	19
208	0x21	33
209	0xfc	-4
210	0xb3	-77
211	0x07	7
212	0xf6	-10
213	0x15	21
214	0x0e	14
215	0x54	84
216	0x06	6
217	0xe1	-31
218	0xf8	-8
219	0x39	57
220	0x04	4
221	0xaf	-81
222	0x0e	14
223	0x04	4
224	0x12	18
225	0xdd	-35
226	0x1a	26
227	0x81	-127
228	0x0f	15
229	0x28	40
230	0x02	2
231	0x0f	15
232	0xf2	-14
233	0x1b	27
234	0x03	3
235	0xe8	-24
236	0xf9	-7
237	0xea	-22
238	0x09	9
239	0x07	7
240	0x1b	27
241	0x07	7
242	0xed	-19
243	0x42	66
244	0x02	2
245	0xf5	-11
246	0x06	6
247	0x1a	26
248	0x01	1
249	0xfc	-4
250	0x2b	43
251	0x15	21
252	0x00	0
253	0x32	50
254	0x04	4
255	0x02	2

model_1/block_3_depthwise_BN/FusedBatchNormV3;model_1/block_3_depthwise/depthwise i1 [1, 3, 3, 48]
0	0x4a	74
1	0x9f	-97
2	0x64	100
3	0x4a	74
4	0x37	55
5	0xdc	-36
6	0x6a	106
7	0xbb	-69
8	0x3d	61
9	0xa4	-92
10	0xb2	-78
11	0x30	48
12	0x35	53
13	0xd6	-42
14	0xba	-70
15	0xa5	-91
16	0x68	104
17	0x4c	76
18	0x32	50
19	0x4e	78
20	0x46	70
21	0xb7	-73
22	0xae	-82
23	0x36	54
24	0xe0	-32
25	0xd2	-46
26	0xbe	-66
27	0xbe	-66
28	0xbe	-66
29	0x3e	62
30	0xbe	-66
31	0x8e	-114
32	0xf1	-15
33	0x29	41
34	0x47	71
35	0x42	66
36	0xbf	-65
37	0x35	53
38	0xcb	-53
39	0xe9	-23
40	0x33	51
41	0xb4	-76
42	0x39	57
43	0x3e	62
44	0xa3	-93
45	0x0c	12
46	0x53	83
47	0xdd	-35
48	0x54	84
49	0x9b	-101
50	0x7f	127
51	0x5a	90
52	0xb5	-75
53	0xb8	-72
54	0xc6	-58
55	0xaa	-86
56	0x61	97
57	0x99	-103
58	0xc1	-63
59	0x4b	75
60	0x51	81
61	0x90	-112
62	0xa4	-92
63	0x5a	90
64	0xdb	-37
65	0x5e	94
66	0x54	84
67	0x7f	127
68	0x55	85
69	0x8f	-113
70	0x36	54
71	0x48	72
72	0xce	-50
73	0xac	-84
74	0xb5	-75
75	0xad	-83
76	0x38	56
77	0x4f	79
78	0xe1	-31
79	0x81	-127
80	0xa8	-88
81	0x52	82
82	0x54	84
83	0x55	85
84	0xad	-83
85	0x52	82
86	0xaa	-86
87	0xef	-17
88	0x4b	75
89	0x9e	-98
90	0x4f	79
91	0x5e	94
92	0xb7	-73
93	0x81	-127
94	0x62	98
95	0x9a	-102
96	0x26	38
97	0xcd	-51
98	0x46	70
99	0x2a	42
100	0x14	20
101	0xd3	-45
102	0xcf	-49
103	0xd6	-42
104	0x2b	43
105	0xdd	-35
106	0x02	2
107	0x24	36
108	0x20	32
109	0xaf	-81
110	0xcb	-53
111	0xfd	-3
112	0xc7	-57
113	0x25	37
114	0x23	35
115	0x46	70
116	0x24	36
117	0xca	-54
118	0x21	33
119	0x1b	27
120	0xe6	-26
121	0xc9	-55
122	0xd2	-46
123	0xe5	-27
124	0x20	32
125	0x1f	31
126	0x56	86
127	0xa5	-91
128	0xa6	-90
129	0x30	48
130	0x26	38
131	0x24	36
132	0xe0	-32
133	0x29	41
134	0xd7	-41
135	0xf5	-11
136	0x2b	43
137	0xd3	-45
138	0x22	34
139	0x2f	47
140	0xf8	-8
141	0xf7	-9
142	0x28	40
143	0xb4	-76
144	0x60	96
145	0x8e	-114
146	0xd8	-40
147	0x5f	95
148	0x38	56
149	0xac	-84
150	0x7f	127
151	0xa3	-93
152	0x59	89
153	0x8c	-116
154	0xba	-70
155	0x52	82
156	0x53	83
157	0x91	-111
158	0xf3	-13
159	0x81	-127
160	0x7f	127
161	0x6a	106
162	0x49	73
163	0xd9	-39
164	0x55	85
165	0x6a	106
166	0x81	-127
167	0x4b	75
168	0x49	73
169	0xb0	-80
170	0xa1	-95
171	0x9f	-97
172	0x81	-127
173	0x56	86
174	0xb8	-72
175	0xf9	-7
176	0xaa	-86
177	0x48	72
178	0x6b	107
179	0x60	96
180	0xab	-85
181	0x4e	78
182	0xac	-84
183	0x5a	90
184	0x53	83
185	0x9a	-102
186	0x59	89
187	0x5b	91
188	0xa9	-87
189	0x6e	110
190	0x61	97
191	0xa4	-92
192	0x7f	127
193	0x81	-127
194	0xbf	-65
195	0x7f	127
196	0x81	-127
197	0x81	-127
198	0xa3	-93
199	0x81	-127
200	0x7f	127
201	0x81	-127
202	0x81	-127
203	0x7f	127
204	0x7f	127
205	0x81	-127
206	0xe9	-23
207	0x61	97
208	0xbf	-65
209	0x7f	127
210	0x7f	127
211	0xce	-50
212	0x7f	127
213	0x7f	127
214	0x46	70
215	0x7f	127
216	0x7f	127
217	0x81	-127
218	0x81	-127
219	0x81	-127
220	0x34	52
221	0x7f	127
222	0xe3	-29
223	0x11	17
224	0x81	-127
225	0x7f	127
226	0x7f	127
227	0x7f	127
228	0x81	-127
229	0x7f	127
230	0x81	-127
231	0x7f	127
232	0x7f	127
233	0x81	-127
234	0x7f	127
235	0x7f	127
236	0x81	-127
237	0xf7	-9
238	0x7f	127
239	0x81	-127
240	0x44	68
241	0xaf	-81
242	0xdd	-35
243	0x41	65
244	0x25	37
245	0xc0	-64
246	0xce	-50
247	0xc1	-63
248	0x39	57
249	0xd6	-42
250	0xc3	-61
251	0x3a	58
252	0x32	50
253	0xcb	-53
254	0xf1	-15
255	0x0a	10

model_1/block_3_expand/Conv2D i1 [48, 1, 1, 8]
0	0x81	-127
1	0x03	3
2	0xf8	-8
3	0x40	64
4	0xdc	-36
5	0x1d	29
6	0x13	19
7	0xe9	-23
8	0x32	50
9	0x47	71
10	0x3e	62
11	0x24	36
12	0x14	20
13	0xd5	-43
14	0x7f	127
15	0x6e	110
16	0xd5	-43
17	0xf4	-12
18	0x01	1
19	0x0d	13
20	0x81	-127
21	0xfa	-6
22	0x13	19
23	0x0b	11
24	0x7d	125
25	0x0f	15
26	0xf9	-7
27	0x81	-127
28	0x8a	-118
29	0x01	1
30	0x20	32
31	0xea	-22
32	0x81	-127
33	0x5e	94
34	0xf7	-9
35	0x08	8
36	0x51	81
37	0xee	-18
38	0x43	67
39	0x08	8
40	0x9c	-100
41	0xda	-38
42	0x18	24
43	0xf0	-16
44	0x81	-127
45	0x0c	12
46	0xfc	-4
47	0x4c	76
48	0xea	-22
49	0x81	-127
50	0x1d	29
51	0xf5	-11
52	0x2b	43
53	0x0a	10
54	0xfd	-3
55	0x30	48
56	0xc6	-58
57	0x06	6
58	0x09	9
59	0x6b	107
60	0x7f	127
61	0xe2	-30
62	0xe2	-30
63	0xfc	-4
64	0x47	71
65	0x0d	13
66	0x0f	15
67	0x81	-127
68	0x13	19
69	0xf5	-11
70	0xd0	-48
71	0xc2	-62
72	0xfe	-2
73	0x81	-127
74	0xf8	-8
75	0x14	20
76	0xeb	-21
77	0x49	73
78	0xd9	-39
79	0x5f	95
80	0xb4	-76
81	0x0f	15
82	0x07	7
83	0x08	8
84	0x81	-127
85	0x5f	95
86	0x26	38
87	0xc3	-61
88	0x78	120
89	0x13	19
90	0x29	41
91	0x0f	15
92	0xb9	-71
93	0xc8	-56
94	0xda	-38
95	0x81	-127
96	0x06	6
97	0x14	20
98	0x2a	42
99	0xfa	-6
100	0x0d	13
101	0xb0	-80
102	0x7f	127
103	0x3b	59
104	0x2e	46
105	0xef	-17
106	0xf9	-7
107	0xf5	-11
108	0x73	115
109	0x7f	127
110	0x7c	124
111	0xcc	-52
112	0x7f	127
113	0x39	57
114	0xf0	-16
115	0x04	4
116	0xc6	-58
117	0xf4	-12
118	0xea	-22
119	0x04	4
120	0xf3	-13
121	0x81	-127
122	0x14	20
123	0xe7	-25
124	0x02	2
125	0x11	17
126	0x0a	10
127	0x27	39
128	0x92	-110
129	0xef	-17
130	0xf8	-8
131	0x14	20
132	0x81	-127
133	0xf3	-13
134	0x0a	10
135	0x01	1
136	0xf3	-13
137	0x57	87
138	0xa1	-95
139	0x0a	10
140	0x00	0
141	0x81	-127
142	0x67	103
143	0xc0	-64
144	0x7f	127
145	0xea	-22
146	0xe3	-29
147	0x0d	13
148	0xc1	-63
149	0x14	20
150	0x09	9
151	0x64	100
152	0x7f	127
153	0xda	-38
154	0xf6	-10
155	0xfa	-6
156	0x13	19
157	0xe7	-25
158	0x20	32
159	0x17	23
160	0x7f	127
161	0x22	34
162	0xf8	-8
163	0x6a	106
164	0x15	21
165	0x29	41
166	0x03	3
167	0xb3	-77
168	0x15	21
169	0x21	33
170	0xa1	-95
171	0xff	-1
172	0xe0	-32
173	0x50	80
174	0x81	-127
175	0x92	-110
176	0x81	-127
177	0x2d	45
178	0x28	40
179	0xfe	-2
180	0xd3	-45
181	0x03	3
182	0xc7	-57
183	0xde	-34
184	0xd4	-44
185	0xce	-50
186	0xfb	-5
187	0x1a	26
188	0x81	-127
189	0x38	56
190	0x50	80
191	0xf8	-8
192	0x7f	127
193	0x10	16
194	0xf5	-11
195	0x00	0
196	0xaf	-81
197	0xe1	-31
198	0x0e	14
199	0x00	0
200	0x16	22
201	0xfa	-6
202	0x04	4
203	0xe7	-25
204	0x7f	127
205	0x2b	43
206	0x37	55
207	0xe1	-31
208	0xf9	-7
209	0xa4	-92
210	0xfb	-5
211	0xe3	-29
212	0xf8	-8
213	0x81	-127
214	0x51	81
215	0xdf	-33
216	0xf2	-14
217	0x81	-127
218	0x20	32
219	0xf7	-9
220	0xfc	-4
221	0xcb	-53
222	0x1f	31
223	0xf5	-11
224	0xbe	-66
225	0x30	48
226	0x1a	26
227	0x2b	43
228	0x0a	10
229	0xe2	-30
230	0x7f	127
231	0x29	41
232	0xf5	-11
233	0x2d	45
234	0x12	18
235	0x01	1
236	0xfa	-6
237	0x29	41
238	0x94	-108
239	0x81	-127
240	0x7f	127
241	0xd7	-41
242	0x07	7
243	0xf4	-12
244	0x9b	-101
245	0x19	25
246	0xcd	-51
247	0xe6	-26
248	0xfd	-3
249	0x03	3
250	0x2d	45
251	0xf7	-9
252	0x19	25
253	0xb5	-75
254	0x7f	127
255	0x3b	59

model_1/block_2_project/Conv2D i1 [8, 1, 1, 48]
0	0xca	-54
1	0xfc	-4
2	0xe6	-26
3	0x0f	15
4	0x09	9
5	0xf5	-11
6	0x0b	11
7	0xf0	-16
8	0x9e	-98
9	0x7f	127
10	0xe1	-31
11	0x6e	110
12	0x68	104
13	0x10	16
14	0x32	50
15	0xe8	-24
16	0x01	1
17	0xe5	-27
18	0xfd	-3
19	0x04	4
20	0x02	2
21	0xfa	-6
22	0xf0	-16
23	0xe8	-24
24	0x1d	29
25	0xa4	-92
26	0x0d	13
27	0x2e	46
28	0xe6	-26
29	0x11	17
30	0x0f	15
31	0xef	-17
32	0xf8	-8
33	0xd0	-48
34	0x57	87
35	0x07	7
36	0xfd	-3
37	0x03	3
38	0xfd	-3
39	0xf9	-7
40	0x5f	95
41	0xf2	-14
42	0x26	38
43	0xd9	-39
44	0xeb	-21
45	0x15	21
46	0x00	0
47	0xe7	-25
48	0x00	0
49	0x1a	26
50	0x77	119
51	0xf7	-9
52	0xf8	-8
53	0xd4	-44
54	0x01	1
55	0xb9	-71
56	0x18	24
57	0x0a	10
58	0x21	33
59	0x01	1
60	0xed	-19
61	0x13	19
62	0xeb	-21
63	0x81	-127
64	0x05	5
65	0xb9	-71
66	0x08	8
67	0x06	6
68	0xd4	-44
69	0x28	40
70	0x15	21
71	0xe4	-28
72	0xf1	-15
73	0xfb	-5
74	0x0e	14
75	0xfd	-3
76	0x05	5
77	0x02	2
78	0x03	3
79	0xf4	-12
80	0xf3	-13
81	0x11	17
82	0x04	4
83	0x10	16
84	0xf2	-14
85	0xda	-38
86	0x40	64
87	0xcb	-53
88	0x03	3
89	0x38	56
90	0xe1	-31
91	0x1f	31
92	0xef	-17
93	0x02	2
94	0xf9	-7
95	0xff	-1
96	0x0c	12
97	0xcc	-52
98	0x0c	12
99	0xd6	-42
100	0x1e	30
101	0x1d	29
102	0xf7	-9
103	0xe0	-32
104	0x07	7
105	0x01	1
106	0xfa	-6
107	0x08	8
108	0xf8	-8
109	0x3f	63
110	0x01	1
111	0x09	9
112	0xd4	-44
113	0x7a	122
114	0xdd	-35
115	0xe4	-28
116	0xef	-17
117	0x17	23
118	0xdb	-37
119	0x04	4
120	0x7f	127
121	0x04	4
122	0x00	0
123	0xff	-1
124	0xe2	-30
125	0xf4	-12
126	0x07	7
127	0xda	-38
128	0xf7	-9
129	0xf0	-16
130	0xfe	-2
131	0x0a	10
132	0xfa	-6
133	0xfb	-5
134	0xf6	-10
135	0x08	8
136	0x0c	12
137	0xef	-17
138	0xe9	-23
139	0x04	4
140	0x04	4
141	0x1a	26
142	0xe7	-25
143	0xd4	-44
144	0xff	-1
145	0xb3	-77
146	0xfe	-2
147	0x0e	14
148	0x03	3
149	0xfb	-5
150	0xf8	-8
151	0x01	1
152	0xfc	-4
153	0xf2	-14
154	0x0b	11
155	0x0b	11
156	0x0d	13
157	0xfc	-4
158	0x37	55
159	0x07	7
160	0xf2	-14
161	0xf1	-15
162	0xff	-1
163	0x1b	27
164	0x03	3
165	0x13	19
166	0xea	-22
167	0x02	2
168	0x0a	10
169	0x2f	47
170	0x01	1
171	0x08	8
172	0xf7	-9
173	0x08	8
174	0x7f	127
175	0x02	2
176	0x11	17
177	0x01	1
178	0x02	2
179	0xfe	-2
180	0xee	-18
181	0xf0	-16
182	0xfb	-5
183	0x09	9
184	0xfd	-3
185	0x06	6
186	0xfa	-6
187	0x1d	29
188	0xf1	-15
189	0x09	9
190	0xfe	-2
191	0x24	36
192	0xa1	-95
193	0x05	5
194	0xf6	-10
195	0xf9	-7
196	0xf5	-11
197	0xd8	-40
198	0x00	0
199	0xfb	-5
200	0x43	67
201	0xc4	-60
202	0x10	16
203	0xee	-18
204	0xd3	-45
205	0xfa	-6
206	0xee	-18
207	0xed	-19
208	0xfe	-2
209	0xfa	-6
210	0x01	1
211	0x1f	31
212	0x07	7
213	0xe2	-30
214	0x0d	13
215	0x12	18
216	0xf2	-14
217	0x3c	60
218	0x02	2
219	0x6d	109
220	0x00	0
221	0xff	-1
222	0xfa	-6
223	0xf5	-11
224	0xfc	-4
225	0x81	-127
226	0xc8	-56
227	0x07	7
228	0xfd	-3
229	0xfb	-5
230	0x02	2
231	0x02	2
232	0xbd	-67
233	0x0e	14
234	0xec	-20
235	0x10	16
236	0xcf	-49
237	0x01	1
238	0x04	4
239	0x05	5
240	0xe1	-31
241	0x29	41
242	0x17	23
243	0x15	21
244	0xc0	-64
245	0x19	25
246	0xf5	-11
247	0x30	48
248	0x1e	30
249	0x0d	13
250	0x07	7
251	0x07	7
252	0xf8	-8
253	0xc9	-55
254	0xfc	-4
255	0x1c	28

model_1/block_2_depthwise_BN/FusedBatchNormV3;model_1/block_2_depthwise/depthwise;model_1/block_3_depthwise/depthwise i1 [1, 3, 3, 48]
0	0x07	7
1	0xfe	-2
2	0x14	20
3	0x6c	108
4	0x03	3
5	0x4f	79
6	0x00	0
7	0x1a	26
8	0x0d	13
9	0x07	7
10	0x0b	11
11	0x07	7
12	0xf8	-8
13	0xfa	-6
14	0xd2	-46
15	0x08	8
16	0xff	-1
17	0x08	8
18	0xea	-22
19	0x8e	-114
20	0xf9	-7
21	0xe9	-23
22	0x7f	127
23	0xf7	-9
24	0xfd	-3
25	0x06	6
26	0xfa	-6
27	0x0a	10
28	0xfb	-5
29	0x04	4
30	0x0e	14
31	0x63	99
32	0x14	20
33	0x1d	29
34	0x26	38
35	0xe6	-26
36	0x02	2
37	0x22	34
38	0xfc	-4
39	0x05	5
40	0x12	18
41	0xbc	-68
42	0xf6	-10
43	0xf7	-9
44	0x11	17
45	0x00	0
46	0xfb	-5
47	0xf5	-11
48	0x7f	127
49	0x0a	10
50	0x0f	15
51	0x81	-127
52	0x1b	27
53	0x55	85
54	0x0c	12
55	0x09	9
56	0x78	120
57	0x7f	127
58	0x07	7
59	0x2a	42
60	0xcf	-49
61	0xeb	-21
62	0x05	5
63	0x08	8
64	0x7f	127
65	0xc8	-56
66	0xc4	-60
67	0xc8	-56
68	0x9c	-100
69	0x19	25
70	0x96	-106
71	0x0f	15
72	0x12	18
73	0x46	70
74	0xdf	-33
75	0xad	-83
76	0x16	22
77	0x14	20
78	0x09	9
79	0x87	-121
80	0x05	5
81	0xc5	-59
82	0x7f	127
83	0x0b	11
84	0xd9	-39
85	0xd1	-47
86	0xf7	-9
87	0x76	118
88	0xb2	-78
89	0x9c	-100
90	0xe0	-32
91	0x03	3
92	0xde	-34
93	0xf5	-11
94	0x81	-127
95	0x17	23
96	0xe1	-31
97	0xfc	-4
98	0x07	7
99	0x0e	14
100	0xff	-1
101	0x40	64
102	0x05	5
103	0x10	16
104	0x19	25
105	0x07	7
106	0xf2	-14
107	0x1f	31
108	0xf3	-13
109	0xff	-1
110	0x0f	15
111	0x04	4
112	0x9a	-102
113	0x1d	29
114	0xfc	-4
115	0x4e	78
116	0xe1	-31
117	0xf5	-11
118	0xf0	-16
119	0xfa	-6
120	0xfd	-3
121	0xc6	-58
122	0xfc	-4
123	0x20	32
124	0xef	-17
125	0x04	4
126	0x05	5
127	0xec	-20
128	0x07	7
129	0xeb	-21
130	0x10	16
131	0xef	-17
132	0x00	0
133	0x2f	47
134	0x27	39
135	0xf7	-9
136	0x32	50
137	0x25	37
138	0xf0	-16
139	0x0d	13
140	0xd6	-42
141	0x00	0
142	0xff	-1
143	0xfa	-6
144	0x7d	125
145	0x09	9
146	0x01	1
147	0x9e	-98
148	0x0e	14
149	0xe2	-30
150	0x25	37
151	0xef	-17
152	0x07	7
153	0x08	8
154	0xf4	-12
155	0x34	52
156	0xfa	-6
157	0x02	2
158	0x0f	15
159	0xdf	-33
160	0x01	1
161	0xcf	-49
162	0xc6	-58
163	0xa9	-87
164	0x0a	10
165	0xb6	-74
166	0x88	-120
167	0xed	-19
168	0x06	6
169	0x60	96
170	0xf2	-14
171	0x81	-127
172	0xf7	-9
173	0x20	32
174	0x0c	12
175	0x97	-105
176	0x11	17
177	0xcd	-51
178	0xfd	-3
179	0x7f	127
180	0xfe	-2
181	0x3a	58
182	0xd4	-44
183	0x2a	42
184	0xc3	-61
185	0x81	-127
186	0x28	40
187	0xa9	-87
188	0xd4	-44
189	0xf0	-16
190	0xf5	-11
191	0xfa	-6
192	0x19	25
193	0x82	-126
194	0x81	-127
195	0x72	114
196	0x81	-127
197	0x81	-127
198	0x82	-126
199	0x81	-127
200	0x81	-127
201	0x9d	-99
202	0x7f	127
203	0x81	-127
204	0x7f	127
205	0x7f	127
206	0x22	34
207	0x81	-127
208	0xaf	-81
209	0x7f	127
210	0x7f	127
211	0x95	-107
212	0x7f	127
213	0x7f	127
214	0x6f	111
215	0x7f	127
216	0x7f	127
217	0x81	-127
218	0x81	-127
219	0x1f	31
220	0x81	-127
221	0x81	-127
222	0x5e	94
223	0x7f	127
224	0x81	-127
225	0x7f	127
226	0xe2	-30
227	0xd8	-40
228	0x7f	127
229	0x81	-127
230	0x7f	127
231	0x7f	127
232	0x7f	127
233	0xb1	-79
234	0x7f	127
235	0x7f	127
236	0x7f	127
237	0x83	-125
238	0x69	105
239	0x69	105
240	0x35	53
241	0x04	4
242	0x30	48
243	0xf2	-14
244	0x06	6
245	0xc3	-61
246	0x2e	46
247	0x11	17
248	0xe7	-25
249	0x0d	13
250	0x96	-106
251	0xf8	-8
252	0x00	0
253	0xdb	-37
254	0x7f	127
255	0x04	4

model_1/block_2_expand/Conv2D i1 [48, 1, 1, 8]
0	0x33	51
1	0x2f	47
2	0xde	-34
3	0xf1	-15
4	0x7f	127
5	0x1b	27
6	0xb9	-71
7	0xd8	-40
8	0xfb	-5
9	0x09	9
10	0xfb	-5
11	0x7f	127
12	0xfc	-4
13	0xf8	-8
14	0xf6	-10
15	0x0a	10
16	0x1e	30
17	0x81	-127
18	0xea	-22
19	0x35	53
20	0xf6	-10
21	0xb1	-79
22	0x68	104
23	0x0e	14
24	0x7f	127
25	0xf2	-14
26	0xf8	-8
27	0x18	24
28	0xe0	-32
29	0xd7	-41
30	0x20	32
31	0xfc	-4
32	0x0e	14
33	0xd0	-48
34	0x7f	127
35	0x01	1
36	0x03	3
37	0xcc	-52
38	0x0e	14
39	0xa6	-90
40	0x4c	76
41	0xe5	-27
42	0x18	24
43	0xfd	-3
44	0x7f	127
45	0x10	16
46	0xdf	-33
47	0x08	8
48	0xf3	-13
49	0x59	89
50	0xf1	-15
51	0x7f	127
52	0x24	36
53	0x14	20
54	0xb2	-78
55	0xca	-54
56	0x03	3
57	0x7f	127
58	0xef	-17
59	0x04	4
60	0xfc	-4
61	0xfc	-4
62	0x0a	10
63	0xf0	-16
64	0x7f	127
65	0x38	56
66	0xf9	-7
67	0x0f	15
68	0xc1	-63
69	0xe4	-28
70	0x02	2
71	0xe1	-31
72	0x81	-127
73	0x04	4
74	0x08	8
75	0x0a	10
76	0x64	100
77	0x20	32
78	0xed	-19
79	0x04	4
80	0xbc	-68
81	0xf2	-14
82	0x0f	15
83	0x7f	127
84	0x23	35
85	0x1e	30
86	0xfe	-2
87	0xf4	-12
88	0x81	-127
89	0x08	8
90	0x09	9
91	0xd2	-46
92	0x29	41
93	0xfa	-6
94	0xe0	-32
95	0xdc	-36
96	0x7f	127
97	0x22	34
98	0x15	21
99	0x1c	28
100	0xd6	-42
101	0xe9	-23
102	0x0f	15
103	0xcc	-52
104	0xe5	-27
105	0x6d	109
106	0x81	-127
107	0xfb	-5
108	0xfb	-5
109	0x7d	125
110	0x98	-104
111	0x3b	59
112	0xa8	-88
113	0xec	-20
114	0xf9	-7
115	0x7f	127
116	0x33	51
117	0x03	3
118	0xfe	-2
119	0xe3	-29
120	0x04	4
121	0x7f	127
122	0xfa	-6
123	0xfd	-3
124	0xfc	-4
125	0xf2	-14
126	0x0c	12
127	0xd0	-48
128	0xf3	-13
129	0x81	-127
130	0x08	8
131	0x09	9
132	0x0c	12
133	0x8c	-116
134	0x7a	122
135	0xe8	-24
136	0x0e	14
137	0x7f	127
138	0x03	3
139	0xf3	-13
140	0x0c	12
141	0x4b	75
142	0xb9	-71
143	0xeb	-21
144	0xfd	-3
145	0x3b	59
146	0x81	-127
147	0x08	8
148	0xea	-22
149	0x46	70
150	0xc8	-56
151	0x41	65
152	0x94	-108
153	0x03	3
154	0x06	6
155	0x19	25
156	0x81	-127
157	0xf5	-11
158	0x06	6
159	0x1f	31
160	0x81	-127
161	0xfa	-6
162	0xe3	-29
163	0x15	21
164	0x6a	106
165	0xd2	-46
166	0x50	80
167	0xf7	-9
168	0x95	-107
169	0xf1	-15
170	0xf6	-10
171	0xff	-1
172	0x81	-127
173	0xfa	-6
174	0x0f	15
175	0x00	0
176	0x81	-127
177	0xdd	-35
178	0x09	9
179	0xf6	-10
180	0x5d	93
181	0xeb	-21
182	0x34	52
183	0x4b	75
184	0xf3	-13
185	0xf3	-13
186	0xf5	-11
187	0xfb	-5
188	0x03	3
189	0x54	84
190	0x81	-127
191	0x9c	-100
192	0xfa	-6
193	0x29	41
194	0x81	-127
195	0xff	-1
196	0x06	6
197	0x34	52
198	0xf2	-14
199	0x54	84
200	0x7b	123
201	0xda	-38
202	0xe6	-26
203	0x7f	127
204	0x83	-125
205	0xee	-18
206	0x0f	15
207	0xcc	-52
208	0xfd	-3
209	0xea	-22
210	0xfd	-3
211	0xf8	-8
212	0xf0	-16
213	0x6f	111
214	0x7f	127
215	0xe8	-24
216	0x30	48
217	0xfc	-4
218	0x00	0
219	0xfe	-2
220	0x7f	127
221	0x25	37
222	0x1d	29
223	0xf2	-14
224	0x09	9
225	0x7f	127
226	0xbe	-66
227	0x06	6
228	0x09	9
229	0x3a	58
230	0xdf	-33
231	0x5f	95
232	0xff	-1
233	0x07	7
234	0x0b	11
235	0xf7	-9
236	0x10	16
237	0x5b	91
238	0x81	-127
239	0xb3	-77
240	0xfe	-2
241	0xfb	-5
242	0x01	1
243	0x81	-127
244	0xf8	-8
245	0x02	2
246	0x00	0
247	0xf4	-12
248	0xbe	-66
249	0x0f	15
250	0xf3	-13
251	0x05	5
252	0x81	-127
253	0x0b	11
254	0xf9	-7
255	0xfc	-4

model_1/block_1_project/Conv2D i1 [8, 1, 1, 48]
0	0xf6	-10
1	0xff	-1
2	0x0e	14
3	0x9c	-100
4	0x0e	14
5	0x19	25
6	0x0a	10
7	0x02	2
8	0xfe	-2
9	0x07	7
10	0x00	0
11	0x00	0
12	0x64	100
13	0x00	0
14	0x03	3
15	0x0e	14
16	0x00	0
17	0xfb	-5
18	0xfa	-6
19	0xfd	-3
20	0x4a	74
21	0xfb	-5
22	0xfe	-2
23	0x06	6
24	0x1a	26
25	0x28	40
26	0x0d	13
27	0x01	1
28	0x07	7
29	0x06	6
30	0x05	5
31	0x81	-127
32	0x0c	12
33	0x0a	10
34	0x05	5
35	0x0b	11
36	0xee	-18
37	0x02	2
38	0xf5	-11
39	0x1b	27
40	0x04	4
41	0xe6	-26
42	0xf5	-11
43	0x01	1
44	0x04	4
45	0xfb	-5
46	0x05	5
47	0x05	5
48	0xdc	-36
49	0xf7	-9
50	0xf9	-7
51	0xf4	-12
52	0x28	40
53	0x1e	30
54	0xd9	-39
55	0x3d	61
56	0x15	21
57	0x09	9
58	0xe8	-24
59	0xeb	-21
60	0x11	17
61	0x00	0
62	0x13	19
63	0x25	37
64	0x00	0
65	0x28	40
66	0x12	18
67	0xcc	-52
68	0x06	6
69	0x1b	27
70	0x7f	127
71	0x17	23
72	0xea	-22
73	0xf9	-7
74	0x35	53
75	0x00	0
76	0x16	22
77	0xf7	-9
78	0x0c	12
79	0xf7	-9
80	0x18	24
81	0xfc	-4
82	0xf7	-9
83	0xf1	-15
84	0x0a	10
85	0xc8	-56
86	0x05	5
87	0x04	4
88	0xf2	-14
89	0xfe	-2
90	0xa7	-89
91	0xfc	-4
92	0xd3	-45
93	0x0b	11
94	0xcd	-51
95	0xa8	-88
96	0xc9	-55
97	0x0b	11
98	0x02	2
99	0x0e	14
100	0x2e	46
101	0xf9	-7
102	0x24	36
103	0x1f	31
104	0xf1	-15
105	0x3c	60
106	0x02	2
107	0xf9	-7
108	0x07	7
109	0x00	0
110	0x04	4
111	0x38	56
112	0x00	0
113	0x18	24
114	0x81	-127
115	0x18	24
116	0x04	4
117	0x11	17
118	0xfc	-4
119	0xee	-18
120	0xdc	-36
121	0x04	4
122	0x25	37
123	0x0c	12
124	0x05	5
125	0x25	37
126	0x17	23
127	0x0b	11
128	0x03	3
129	0xef	-17
130	0xf7	-9
131	0xf6	-10
132	0x05	5
133	0xff	-1
134	0x01	1
135	0x05	5
136	0x28	40
137	0xf2	-14
138	0xdc	-36
139	0x04	4
140	0x16	22
141	0xcd	-51
142	0x20	32
143	0x06	6
144	0x01	1
145	0x09	9
146	0xfe	-2
147	0x05	5
148	0xf6	-10
149	0x18	24
150	0x00	0
151	0xf9	-7
152	0x3e	62
153	0x14	20
154	0xff	-1
155	0xfe	-2
156	0x18	24
157	0x00	0
158	0xe8	-24
159	0xf5	-11
160	0x00	0
161	0x03	3
162	0xf8	-8
163	0xff	-1
164	0xf7	-9
165	0x04	4
166	0x08	8
167	0xf0	-16
168	0xf5	-11
169	0x00	0
170	0xf4	-12
171	0xf1	-15
172	0xfa	-6
173	0x00	0
174	0xf8	-8
175	0xef	-17
176	0xd3	-45
177	0x2e	46
178	0xc5	-59
179	0x05	5
180	0x07	7
181	0x01	1
182	0x0a	10
183	0x81	-127
184	0xff	-1
185	0x00	0
186	0xfd	-3
187	0xce	-50
188	0xfe	-2
189	0xfe	-2
190	0x00	0
191	0x07	7
192	0x02	2
193	0x00	0
194	0x53	83
195	0x15	21
196	0x03	3
197	0xf2	-14
198	0xff	-1
199	0xf5	-11
200	0xf9	-7
201	0x05	5
202	0x00	0
203	0x01	1
204	0xb9	-71
205	0x00	0
206	0xf3	-13
207	0x00	0
208	0x00	0
209	0x17	23
210	0x03	3
211	0xfc	-4
212	0x42	66
213	0x06	6
214	0x04	4
215	0xfb	-5
216	0xec	-20
217	0x2a	42
218	0x01	1
219	0x24	36
220	0xfd	-3
221	0xf8	-8
222	0xfc	-4
223	0x58	88
224	0x03	3
225	0xff	-1
226	0x04	4
227	0xfe	-2
228	0x20	32
229	0xee	-18
230	0x01	1
231	0xee	-18
232	0xfd	-3
233	0x81	-127
234	0xfd	-3
235	0x12	18
236	0xff	-1
237	0xfd	-3
238	0x00	0
239	0xfe	-2
240	0xfa	-6
241	0x2d	45
242	0x06	6
243	0xf9	-7
244	0x00	0
245	0x2f	47
246	0x1d	29
247	0x0c	12
248	0xe4	-28
249	0x24	36
250	0x06	6
251	0x3d	61
252	0x15	21
253	0x00	0
254	0x81	-127
255	0xfc	-4
